transformer_model.onnx (onnx, 90629 bytes, 28 tensors)

embedding.weight f4 [11, 32]
0	0x3c19f8f2	0.009397732
1	0x3c4bb622	0.012433561
2	0x3ca3ba17	0.019986195
3	0x3cc6fca2	0.024290387
4	0xbd3a8e2f	-0.045545753
5	0x3d156a2d	0.03647821
6	0xbc6b640b	-0.014367114
7	0xbc139020	-0.00900653
8	0x3cb4a185	0.022049675
9	0x3a4de5be	0.00078543636
10	0x3aa1e594	0.0012351745
11	0xbbfccba9	-0.007714708
12	0x3c450f82	0.012027623
13	0xbaa4408d	-0.0012531445
14	0xbc41d78d	-0.0118311765
15	0xbcc75e9d	-0.024337107
16	0xbcb1b447	-0.021692408
17	0xbc7f2230	-0.015572116
18	0xbc742b0a	-0.014902839
19	0x3b292e5d	0.0025814988
20	0x3b4015bb	0.0029309827
21	0xbcea1742	-0.028575543
22	0x3d0a1a1f	0.033716317
23	0xbcf0e6c1	-0.029406907
24	0xbc01eaf7	-0.007929555
25	0x3d003f29	0.031310234
26	0x3c804f5f	0.015662847
27	0x3c227bf1	0.009917245
28	0xbb5dfdc9	-0.0033873192
29	0xbc44e9d5	-0.0120186405
30	0xbd14e5a9	-0.036351833
31	0xbd1774db	-0.036976676
32	0x3c42dd1e	0.011893539
33	0x3c1f4497	0.009720943
34	0x3ca9a6cb	0.020709416
35	0xbc5fa4e4	-0.013650153
36	0xbb9bc871	-0.004754119
37	0x3befd517	0.0073191035
38	0x3c14bad4	0.009077746
39	0xbd58ae4c	-0.052900597
40	0x3cf3b2b3	0.029748296
41	0xbbb9ac72	-0.005666309
42	0xbbda8ae7	-0.0066693905
43	0x3c96703e	0.018364068
44	0x3bc229dc	0.0059254
45	0x3b6e6161	0.003637396
46	0xbbccc3f2	-0.0062489444
47	0x3b2897bc	0.0025725206
48	0x3cb17b41	0.021665217
49	0x3c5ac74a	0.013353178
50	0xbc7faca5	-0.0156051265
51	0xbacd5c66	-0.0015667796
52	0x3c0af592	0.0084814
53	0x3d237ca0	0.039913774
54	0x3c8521da	0.016251493
55	0x3b8cf566	0.0043017147
56	0xbc8594e7	-0.016306354
57	0xbced7133	-0.028984642
58	0xbd1a9986	-0.037744068
59	0xbc8d8236	-0.017274003
60	0x3b90a687	0.004414383
61	0x3d031b36	0.032008372
62	0xbc88a78d	-0.016681457
63	0x3d1aeabb	0.037821513
64	0xbb372f17	-0.0027951652
65	0x3c7f054f	0.0155652305
66	0xbccadd4e	-0.02476373
67	0x3d0c70ab	0.034287136
68	0x3b9be61b	0.0047576553
69	0xbcb04c2b	-0.021520695
70	0x3c22add0	0.009929135
71	0xbc3c7a02	-0.011503698
72	0x3c577e82	0.01315272
73	0x3c7d1d1d	0.015448836
74	0xbb64fdd8	-0.0034941342
75	0xba5867a9	-0.00082551927
76	0x3b772258	0.003770968
77	0x3b5a8f1c	0.003334946
78	0x3cd879a4	0.02642519
79	0xbbacd39e	-0.00527425
80	0x3bac4178	0.005256828
81	0x3c8d0447	0.017213954
82	0x3b02fc73	0.0019986897
83	0x3c635af0	0.013876662
84	0xbbb8dce1	-0.005641565
85	0x3a5e1320	0.0008471478
86	0xbd470a34	-0.048593715
87	0xbcbb6940	-0.022877336
88	0xbc96b516	-0.018396895
89	0xbcd9f338	-0.026605234
90	0x3cc09ea1	0.02351314
91	0xbc6df141	-0.014522851
92	0x3bdeebce	0.0068030125
93	0x3c74ba6e	0.014937026
94	0xbbd94999	-0.006631088
95	0xbc48e3d2	-0.012261348
96	0xbe370457	-0.1787275
97	0x3de073b7	0.10959571
98	0xbe15a4f3	-0.14613704
99	0x3d6542c2	0.05597187
100	0xbd2c02b8	-0.04199478
101	0xbdacabce	-0.08431207
102	0x3e0d0e61	0.13775016
103	0xbda9133e	-0.08255623
104	0xbe3af11a	-0.18256035
105	0xbe0bf18a	-0.13666359
106	0xbd764a06	-0.060129188
107	0xbe13ab57	-0.1442083
108	0xbd997464	-0.07492903
109	0xbd5e94c9	-0.05434111
110	0x3d99135a	0.07474394
111	0xbb7c7994	-0.0038524615
112	0x3e061d31	0.13097073
113	0x3c87ebe7	0.01659198
114	0xbdaef8b5	-0.08543531
115	0xbdd6bc23	-0.10485103
116	0xbdeb1d38	-0.114801824
117	0xbcb5b569	-0.02218123
118	0xbdd7bbc6	-0.10533862
119	0xbcea06b4	-0.02856765
120	0x3d796014	0.060882643
121	0xbca37976	-0.019955378
122	0x3dc1666e	0.09443365
123	0x3dbce31b	0.092230044
124	0x3ddb084a	0.106949404
125	0xbd83a8bb	-0.06428667
126	0xbc896b2b	-0.016774734
127	0xbe368245	-0.17823131
128	0xbcf1e056	-0.029525917
129	0xbd888d79	-0.06667609
130	0x3d230d3d	0.039807547
131	0x3daea4cb	0.085275255
132	0xbd8b1a0f	-0.0679208
133	0xbcb749c1	-0.022374036
134	0xbdc02f93	-0.09384074
135	0xbe29495a	-0.16531888
136	0x3dc00238	0.09375423
137	0x3e243935	0.16037448
138	0xbd53dca1	-0.05172408
139	0x3d15fd6c	0.036618635
140	0x3d899489	0.06717784
141	0x3dcb5036	0.099274084
142	0x3dacd139	0.084383436
143	0xbd9e9432	-0.0774311
144	0xbd92c2a6	-0.071660325
145	0x3ddc32c2	0.10751869
146	0x3d26976c	0.04067175
147	0x3c15a9ff	0.0091347685
148	0xbd90f4e4	-0.07077959
149	0x3dac11c4	0.08401826
150	0x3de8ef0b	0.11373719
151	0xbcde80aa	-0.027160961
152	0xbe1bd086	-0.15216264
153	0x3dd4aa9c	0.10384104
154	0xbd84e25b	-0.064884864
155	0xbdc16de5	-0.09444789
156	0xbdb08a6a	-0.086201504
157	0x3d54b698	0.051931947
158	0xbe44d5af	-0.19222139
159	0xbb716f10	-0.003683988
160	0xbd010866	-0.03150215
161	0xbd895927	-0.067064576
162	0x3dcf9a5c	0.101368636
163	0xbdbd4d2d	-0.09243236
164	0xbe1f00c7	-0.1552764
165	0x3e031d68	0.12804186
166	0xbda9e9d8	-0.08296555
167	0x3d92284e	0.07136594
168	0x3d64c99b	0.05585633
169	0xbd17f47f	-0.037098404
170	0x3da9d2f8	0.08292192
171	0xbddba2ed	-0.10724435
172	0x3e0ce2fb	0.13758461
173	0xbe24245c	-0.16029495
174	0x3cba47de	0.022739347
175	0xbdb16ebd	-0.086637
176	0xbce3238c	-0.027726911
177	0xbda3bc89	-0.079949446
178	0x3e4aa9cd	0.19791336
179	0x3c7aabd7	0.015299759
180	0x3e150c81	0.14555551
181	0x3d5bdb7c	0.053676113
182	0x3e5abc5c	0.21360916
183	0xbe1f5a38	-0.1556176
184	0x3da5a4a3	0.080880426
185	0xbe1dc7c1	-0.15408231
186	0x3c4601a0	0.012085348
187	0x3d051507	0.032490756
188	0xbdcd2aa5	-0.100178994
189	0xbd172470	-0.036899984
190	0x3de5ea45	0.11226324
191	0x3dadd717	0.08488291
192	0x3d05473c	0.032538638
193	0x3d906829	0.07051117
194	0x3c787d67	0.015166617
195	0xbc319430	-0.010838553
196	0x3ca3b2da	0.019982744
197	0x3be6912e	0.0070363497
198	0x3cd2c9a5	0.025730917
199	0x3c4daa82	0.012552859
200	0x3d1b1559	0.037862156
201	0xbc2e6773	-0.010644781
202	0x3d0fcb49	0.035105977
203	0xbc6618d8	-0.014044009
204	0xbcb1c5b0	-0.02170071
205	0x3be2c8c7	0.006920907
206	0x3c89bd99	0.01681404
207	0xbb824aa6	-0.003976184
208	0x3c6ab229	0.014324703
209	0x3cb937a0	0.022609532
210	0xba5ecfca	-0.0008499591
211	0x3b45892b	0.0030141573
212	0xbb02b4b8	-0.0019944143
213	0xbc6afcc3	-0.01434249
214	0xba40df29	-0.0007357472
215	0x3cd33167	0.025780393
216	0xbc5ef678	-0.013608567
217	0x3c0a0020	0.008422881
218	0xba9f2f90	-0.0012144912
219	0xbc74cfd0	-0.0149421245
220	0xbce0bbe4	-0.027433343
221	0xbc61cf9e	-0.01378241
222	0xbc5b9fa9	-0.013404765
223	0x3b3f076f	0.0029148718
224	0x3b6d3f2f	0.003620099
225	0x3ce3e682	0.027819876
226	0x3c71bafc	0.014754053
227	0xbd19cd17	-0.037549105
228	0xbc2a6e50	-0.010402277
229	0xbbe47404	-0.006971838
230	0x3d318ee5	0.043349165
231	0x3ca61c2a	0.020277102
232	0xbccc22d7	-0.024918957
233	0xbc3bbc32	-0.0114584435
234	0xbb411f42	-0.0029468094
235	0x3cb481aa	0.022034485
236	0x3d56bbf3	0.052425336
237	0x3c239ef0	0.009986624
238	0x3b12f04f	0.0022421067
239	0xbc54b800	-0.012983322
240	0x3d009711	0.03139407
241	0x3c17404c	0.009231638
242	0x3b23ae56	0.0024975738
243	0x3d376b65	0.044780154
244	0xbcd8aa61	-0.02644843
245	0x3be2f841	0.006926567
246	0x3b1bd7cb	0.0023779746
247	0x3cce434f	0.02517858
248	0x3c16d4ef	0.009206041
249	0x3cb43857	0.021999521
250	0xbc9ee5e6	-0.019396733
251	0xbcec3f2f	-0.028838722
252	0x3ce83795	0.028346816
253	0xbcf29c05	-0.029615412
254	0x3c029aae	0.007971449
255	0xbc6e2bd5	-0.014536818

blocks.0.attention.out.bias f4 [32]
0	0xbcb71fb5	-0.022353986
1	0xbd04aa7c	-0.03238915
2	0x3ca7ba2a	0.020474512
3	0x3b3634ee	0.0027802545
4	0xbcd66aa6	-0.0261739
5	0x3bb02002	0.0053749094
6	0xbc232034	-0.009956408
7	0xbc142e71	-0.009044276
8	0x3cff6e51	0.031180533
9	0x3c2e1e1a	0.010627294
10	0x3bd23dbf	0.006416052
11	0xbcf539ef	-0.029934851
12	0x3c13f2f8	0.009030096
13	0xbb5cda69	-0.0033699519
14	0x3be88e8b	0.0070970706
15	0xbbeaa7e9	-0.0071611297
16	0xbc80d8d0	-0.015728384
17	0xbceb0cc7	-0.028692616
18	0x3c52c886	0.012865191
19	0xbca46e4a	-0.020072121
20	0x3c382e55	0.011241515
21	0xba0d23dd	-0.0005384067
22	0x3d844b88	0.06459719
23	0xbd3410b7	-0.043961253
24	0x3ada4e09	0.0016655336
25	0xbb8a17a9	-0.0042142463
26	0x3ac97de6	0.0015372604
27	0xbcdbe8d4	-0.02684442
28	0x3a878edc	0.0010342258
29	0xbbbdf6ee	-0.0057972586
30	0x3d258b0c	0.04041581
31	0xbc1a6522	-0.009423526

blocks.0.ffn.linear1.bias f4 [64]
0	0x3a20a57b	0.0006128174
1	0xbbda6c11	-0.0066657146
2	0xbc41d77e	-0.0118311625
3	0xbc81bf55	-0.015838305
4	0x3c8e9118	0.01740317
5	0x3ceeab3f	0.02913439
6	0x3cb58576	0.022158366
7	0xbcf72257	-0.030167742
8	0x3cb8cbe6	0.022558164
9	0x3d2913d7	0.041278686
10	0xbcd31b8f	-0.025769977
11	0xbd02fa4e	-0.03197699
12	0x3c1416b9	0.009038621
13	0xbcd937ac	-0.026515804
14	0x3a4619eb	0.00075569627
15	0x3c20f966	0.009825086
16	0x3b3ad923	0.0028510771
17	0x3cb1c40f	0.021699933
18	0x3b3db713	0.0028948232
19	0xbd3d7fa0	-0.04626429
20	0xbcaab64e	-0.020838883
21	0x3b7c1c92	0.0038469178
22	0x3b25e722	0.0025314768
23	0xbd0f6e2a	-0.03501717
24	0xbceff1a9	-0.029290037
25	0x3bf74edc	0.0075472426
26	0xbb9f9896	-0.0048704846
27	0xbc876ff4	-0.016532876
28	0xbcde5516	-0.027140182
29	0xbc62a216	-0.01383259
30	0x3b7ddbb3	0.0038735687
31	0xbc99576f	-0.01871845
32	0xbad4e451	-0.001624236
33	0xbd2dce47	-0.04243305
34	0x3b7ad711	0.0038275162
35	0x3d01f531	0.031727973
36	0xbb8f6de5	-0.004377114
37	0xbc71090e	-0.014711631
38	0x3bebe05b	0.007198376
39	0x3cb0a9f0	0.021565408
40	0xbafdb03f	-0.0019354894
41	0xbcfe6a89	-0.03105666
42	0xbce1f19a	-0.027581025
43	0x3c376fb2	0.011196064
44	0x3acd628b	0.0015669627
45	0xbb524ccd	-0.0032089234
46	0xbc55cc47	-0.013049192
47	0x3ced7f9d	0.028991515
48	0xbca8e401	-0.020616533
49	0x3aaa274e	0.0012981684
50	0x3c932523	0.017962044
51	0xbc4b74bb	-0.012417967
52	0xbc975ff6	-0.018478375
53	0x3b805dc8	0.0039174296
54	0xbbbc5ca8	-0.00574835
55	0xbb8c8289	-0.004288022
56	0xbccb2c7d	-0.024801487
57	0x3b20a6eb	0.0024513553
58	0x3c8afe2f	0.016966907
59	0x3c350ee5	0.011050914
60	0xbcdfc143	-0.027313834
61	0x3b8f0d83	0.0043656244
62	0xbd39646b	-0.04526178
63	0x3c2df81f	0.010618239

blocks.0.ffn.linear2.bias f4 [32]
0	0x3c17140b	0.009221087
1	0xbc9f7dd4	-0.01946918
2	0x3cc0948c	0.023508333
3	0x3b4b123a	0.0030986206
4	0xbd212b31	-0.03934783
5	0x3c6ed1bb	0.014576371
6	0xbc44dd47	-0.012015647
7	0x3c84c03e	0.01620495
8	0x3d78a0a2	0.060700066
9	0x3cad7fd0	0.02117911
10	0xbc1d95bb	-0.009618218
11	0xbbf70f45	-0.007539662
12	0x3c19bc0d	0.009383214
13	0x3c13b4aa	0.009015242
14	0xbc0bd1ce	-0.008533908
15	0xbca48028	-0.02008064
16	0xbc5573ee	-0.013028128
17	0xbc569eba	-0.013099367
18	0x3c86d1f6	0.016457539
19	0x3b0b01db	0.0021210823
20	0xbb41a84b	-0.0029549773
21	0x3bb5a48e	0.005543298
22	0x3d22d37c	0.03975247
23	0xbc8cef76	-0.017204028
24	0xbcc99489	-0.02460696
25	0xbbd4958a	-0.006487553
26	0xba7e08d0	-0.0009690644
27	0xb9e87dbc	-0.00044344168
28	0xbc41876e	-0.011812074
29	0x394b64cd	0.0001939714
30	0x3a96818a	0.0011482697
31	0x3cdcf802	0.026973728

blocks.0.norm1.weight f4 [32]
0	0x3f72c106	0.9482578
1	0x3f715f51	0.94286066
2	0x3f717795	0.9432309
3	0x3f7ead05	0.99482757
4	0x3f827d19	1.0194427
5	0x3f74c4f0	0.95613
6	0x3f86686d	1.0500618
7	0x3f83534b	1.0259794
8	0x3f6d1e8e	0.9262475
9	0x3f8131da	1.0093338
10	0x3f77d2f1	0.96806246
11	0x3f81d427	1.0142869
12	0x3f7dcfed	0.99145395
13	0x3f768d37	0.96309227
14	0x3f8265b0	1.0187283
15	0x3f787e1f	0.97067446
16	0x3f81a9c3	1.0129932
17	0x3f588524	0.84578156
18	0x3f80b42c	1.0054984
19	0x3f803d95	1.0018793
20	0x3f75a6d7	0.959577
21	0x3f6e4ffa	0.93090785
22	0x3f81c0e1	1.0136987
23	0x3f7afb6e	0.980399
24	0x3f5fc68e	0.87412345
25	0x3f793218	0.9734206
26	0x3f78b0cb	0.97144765
27	0x3f67ed22	0.9059621
28	0x3f81faff	1.0154723
29	0x3f69d576	0.9134134
30	0x3f76636c	0.96245456
31	0x3f80ed6b	1.0072454

blocks.0.norm1.bias f4 [32]
0	0x3c910a43	0.017705088
1	0xbc291302	-0.010319473
2	0x3d2664c2	0.040623434
3	0xbd81fe6d	-0.06347356
4	0x3d0297d8	0.03188309
5	0xbd8b55a8	-0.06803447
6	0x3ca45c9e	0.020063695
7	0xbc095d12	-0.008384006
8	0x3d763e5e	0.06011807
9	0xbcea27c1	-0.02858341
10	0x3d9bb518	0.076029
11	0xbc489fdd	-0.012245146
12	0x3d551675	0.05202337
13	0xbda6146c	-0.08109364
14	0x3bca8905	0.006180885
15	0xbd775cd1	-0.06039125
16	0x3c908170	0.017639846
17	0xbe01eab0	-0.12687182
18	0x3d103f5c	0.035216674
19	0xbd1e95a2	-0.03871692
20	0x3d95d428	0.07315856
21	0xbdac2cd7	-0.0840699
22	0x3ce487df	0.02789682
23	0xbd7b50f4	-0.0613565
24	0x3de62019	0.11236591
25	0xbd7527f4	-0.059852555
26	0x3d488074	0.048950627
27	0xbdd1bfc3	-0.10241654
28	0x3c3c1b6e	0.011481149
29	0xbdf35385	-0.118811645
30	0x3dda52c9	0.10660321
31	0xbc926178	-0.017868742

blocks.0.norm2.weight f4 [32]
0	0x3f92f508	1.1481028
1	0x3f87a371	1.0596753
2	0x3f86801a	1.0507843
3	0x3f811d5e	1.0087087
4	0x3f8d024b	1.1016325
5	0x3f82104f	1.0161227
6	0x3f873323	1.0562481
7	0x3f88c15f	1.0684012
8	0x3f833531	1.0250608
9	0x3f7f9994	0.99843717
10	0x3f7b33bc	0.98125815
11	0x3f8a78e0	1.0818138
12	0x3f83a9ac	1.0286155
13	0x3f809701	1.0046083
14	0x3f8480aa	1.0351765
15	0x3f72921a	0.94754183
16	0x3f81e555	1.0148112
17	0x3f6efb38	0.9335208
18	0x3f8cdc2e	1.1004694
19	0x3f80f57e	1.0074918
20	0x3f7d2976	0.9889139
21	0x3f70a63b	0.9400365
22	0x3f84b9e7	1.0369233
23	0x3f7fcefc	0.9992521
24	0x3f7fb23f	0.99881357
25	0x3f782d62	0.9694425
26	0x3f7febe6	0.9996933
27	0x3f7f1d22	0.9965383
28	0x3f86a981	1.0520478
29	0x3f6711f7	0.9026179
30	0x3f8093d8	1.0045118
31	0x3f79c6d1	0.97568995

blocks.0.norm2.bias f4 [32]
0	0x3c6807a0	0.014161974
1	0x3b49cd9b	0.0030792716
2	0xbc00f48f	-0.007870807
3	0xbcc0702a	-0.023490984
4	0x3cca579f	0.024699984
5	0xbcede84a	-0.029041428
6	0x3d03e4e7	0.03220072
7	0xbabb0655	-0.0014268855
8	0x3d373cbf	0.044735666
9	0xbd578d4a	-0.052624978
10	0x3da03452	0.07822479
11	0xbcb3ddfd	-0.021956438
12	0x3c898a8e	0.0167897
13	0xbd862ab2	-0.06551112
14	0x3cd9171f	0.026500283
15	0xbd521628	-0.05129066
16	0x3ce3dc45	0.027814994
17	0xbdd0a143	-0.10187008
18	0x3c83c390	0.016084462
19	0xbd54913b	-0.051896315
20	0x3d77f02d	0.060531784
21	0xbd348b6b	-0.04407827
22	0x3c8a6167	0.016892148
23	0xbd7fd975	-0.062463243
24	0x3d4fa281	0.050692085
25	0xbd2d2830	-0.042274654
26	0x3d10f9aa	0.03539435
27	0xbce85873	-0.028362488
28	0x3bcd7599	0.0062701222
29	0xbddd4b78	-0.1080541
30	0x3dcb0a6d	0.09914098
31	0xbc755774	-0.014974464

blocks.1.attention.out.bias f4 [32]
0	0xbc5e038e	-0.013550652
1	0xbc51f70b	-0.012815247
2	0x3c19e17b	0.009392138
3	0x3bcc6adf	0.006238326
4	0xbd470452	-0.048588105
5	0x3c2e6ef6	0.010646572
6	0xbc568a1b	-0.01309445
7	0xbb0e86c0	-0.0021747798
8	0x3d1eb849	0.038749967
9	0x3c44c9f2	0.012011038
10	0x3bf53aa0	0.0074837953
11	0xbbcaec42	-0.006192715
12	0xbb7c6979	-0.0038515015
13	0x3d1704d1	0.036869828
14	0x3bf55c25	0.007487791
15	0xbb774fb7	-0.0037736723
16	0xbc9623f3	-0.018327689
17	0x3baca9dd	0.0052692727
18	0x3baf8c2c	0.005357286
19	0x3ce0c658	0.027438328
20	0xbb85f85a	-0.0040884437
21	0x3cb77952	0.022396717
22	0x3d19b3ba	0.037524916
23	0xbc263f5b	-0.010146941
24	0xbcea2803	-0.028583532
25	0xbc8097c4	-0.015697367
26	0xbb3200f0	-0.0027161203
27	0x3c02831c	0.007965829
28	0xbd40db17	-0.04708394
29	0xbae03930	-0.0017106887
30	0x3ca5c708	0.020236507
31	0xba1d2332	-0.0005994319

blocks.1.ffn.linear1.bias f4 [64]
0	0x3c17fab3	0.00927608
1	0xbcef7005	-0.02922822
2	0x3b79af6b	0.0038098942
3	0xbc62893b	-0.013826664
4	0x3bb10fff	0.005403518
5	0xbbd6c709	-0.0065544886
6	0xbd1e3e04	-0.03863336
7	0xbc74af56	-0.0149343815
8	0x3d1c011f	0.038087007
9	0xbd129303	-0.035784733
10	0x3ca77610	0.020442039
11	0xbd0429d1	-0.03226644
12	0x3a69992a	0.0008911068
13	0xbcd0a3bf	-0.025468705
14	0xbd1118f2	-0.03542418
15	0xbd1480d3	-0.03625567
16	0xbcc08dbf	-0.02350509
17	0xbc841bdf	-0.016126571
18	0xbc94440b	-0.018098852
19	0xbca4bfe5	-0.020111034
20	0x3a0c03fa	0.0005341169
21	0xbd01d8f0	-0.03170103
22	0x3c0d1325	0.008610521
23	0x3c0ea9f2	0.00870751
24	0x3c8c53a3	0.017129725
25	0xbd20fd8d	-0.039304305
26	0x3c127d22	0.008940967
27	0x3d2deff8	0.04246518
28	0x3cc5643f	0.024095653
29	0x3c07f08c	0.008297097
30	0x3b3d2f55	0.0028867323
31	0x3be7049b	0.0070501096
32	0xbcaa3c35	-0.020780662
33	0xbc07cbe7	-0.00828836
34	0x3b493605	0.0030702364
35	0xbd20b827	-0.03923812
36	0x3cb704cc	0.022341155
37	0xbd0fad80	-0.035077572
38	0xbc056ef2	-0.008144127
39	0x3be4aa0c	0.006978279
40	0x3c3ae059	0.011406028
41	0x3cc4259c	0.023943715
42	0xbc944067	-0.018097116
43	0x3d162ed4	0.036665753
44	0x3b8cd39d	0.004297687
45	0xbc9eb677	-0.019374115
46	0x3c1d9e8a	0.009620318
47	0x3b06802b	0.0020523171
48	0xbcb29723	-0.021800583
49	0xbac2ccc9	-0.0014862056
50	0xbc8d78fc	-0.017269604
51	0xbbc0c65c	-0.0058830213
52	0xbc559768	-0.013036586
53	0x3bf08005	0.00733948
54	0xbc6630a3	-0.014049682
55	0x398a83c4	0.00026419584
56	0x3aed6f2c	0.0018114797
57	0xbc4f4e1d	-0.012652901
58	0x3bab7cba	0.0052333744
59	0xbb9c9e5f	-0.0047796215
60	0xbc8d6ddf	-0.017264305
61	0xbc5cf9ca	-0.013487289
62	0xbc8e51a9	-0.017372923
63	0x3aca1741	0.0015418307

blocks.1.ffn.linear2.bias f4 [32]
0	0xbca9d093	-0.020729339
1	0xbcd55d60	-0.026045501
2	0x3d109dbd	0.03530668
3	0x3cadef60	0.021232307
4	0xbd040392	-0.032229967
5	0x3cf2f856	0.029659431
6	0xbcb89a97	-0.022534652
7	0x3b894557	0.004189174
8	0x3cb9c801	0.022678377
9	0x3b4d3f83	0.0031318374
10	0xbcaf7be4	-0.02142138
11	0xbc269cc0	-0.010169208
12	0x3cc0690d	0.023487592
13	0x3cac09ee	0.021000829
14	0xbc0f609b	-0.00875106
15	0xbbf0bc02	-0.007346631
16	0xbd128cc5	-0.03577878
17	0xba43642e	-0.00074535876
18	0x3bd48b11	0.0064863046
19	0x3c6a0958	0.014284454
20	0xbc81d7da	-0.015849996
21	0x3ca26760	0.019824684
22	0x3d364a1b	0.044504266
23	0xbb6bd977	-0.0035987773
24	0xbba74c53	-0.005105534
25	0xbc1e693b	-0.009668644
26	0xbc9029e4	-0.0175981
27	0x3baae7cb	0.00521562
28	0xbcabf58e	-0.020991113
29	0x3ca7535c	0.020425491
30	0xbcb8435a	-0.022493053
31	0x3c258481	0.010102392

blocks.1.norm1.weight f4 [32]
0	0x3f6a4684	0.9151385
1	0x3f7bdbc0	0.98382187
2	0x3f5b6be5	0.8571151
3	0x3f6cfcea	0.92573416
4	0x3f8415d9	1.0319167
5	0x3f78de46	0.9721416
6	0x3f84c781	1.0373384
7	0x3f827ae8	1.0193758
8	0x3f6b1fde	0.918455
9	0x3f850c35	1.039435
10	0x3f650a1b	0.89468545
11	0x3f8ac344	1.084084
12	0x3f7c7d44	0.9862864
13	0x3f865d09	1.0497142
14	0x3f817524	1.0113873
15	0x3f80777d	1.0036465
16	0x3f839b64	1.0281796
17	0x3f65b0a1	0.8972264
18	0x3f74ed4d	0.9567459
19	0x3f6f3882	0.934456
20	0x3f6b9c9a	0.9203583
21	0x3f7c2e67	0.98508304
22	0x3f849854	1.0358987
23	0x3f7dfa54	0.99210095
24	0x3f923287	1.142167
25	0x3f7bbdb1	0.9833632
26	0x3f84dff6	1.0380847
27	0x3f75ad51	0.95967585
28	0x3f8a5776	1.0807941
29	0x3f78fd30	0.97261333
30	0x3f87ac90	1.0599537
31	0x3f8325a8	1.0245867

blocks.1.norm1.bias f4 [32]
0	0x3dd452c6	0.1036735
1	0xbdad3ae0	-0.08458495
2	0x3de0dcbf	0.10979604
3	0xbdc9d277	-0.09854596
4	0x3d1b6940	0.03794217
5	0xbc6080a5	-0.013702546
6	0xbc43a78a	-0.0119418
7	0xb9d28a0e	-0.0004015718
8	0x3ddebd7e	0.108759865
9	0xbb11b778	-0.00222346
10	0x3de7b6fb	0.11314198
11	0x3d0fec47	0.03513744
12	0x3d7352da	0.059405185
13	0xbd87aa2d	-0.06624255
14	0xbd5311b2	-0.051530547
15	0xbd3fc721	-0.046820763
16	0xbd1dc7e0	-0.038520694
17	0xbde1f02c	-0.11032137
18	0x3d864e32	0.06557883
19	0xbd63c6e7	-0.05560961
20	0x3dcd9cef	0.10039698
21	0xbcfcf4d4	-0.030878462
22	0x3d2916b6	0.041281424
23	0xbc32d09b	-0.010913993
24	0x3ced22a5	0.028947184
25	0xbd8b05ac	-0.06788191
26	0xbd25483c	-0.04035209
27	0xbe02baec	-0.12766618
28	0xbb630bde	-0.0034644525
29	0xbd9f97c2	-0.077926174
30	0x3d85e4d5	0.06537787
31	0x3cddded4	0.027083792

blocks.1.norm2.weight f4 [32]
0	0x3f8ad707	1.0846871
1	0x3f81bc5f	1.0135611
2	0x3f7bc688	0.9834981
3	0x3f7e0548	0.9922681
4	0x3f8e180d	1.110109
5	0x3f7f01dc	0.9961221
6	0x3f7f9dbd	0.99850065
7	0x3f89734b	1.073831
8	0x3f846a6f	1.0344981
9	0x3f82d542	1.0221331
10	0x3f7113a3	0.9417059
11	0x3f87b444	1.0601888
12	0x3f869bbc	1.0516276
13	0x3f7b5e56	0.9819082
14	0x3f85b26a	1.0445073
15	0x3f812094	1.0088067
16	0x3f81ca5c	1.013988
17	0x3f7650c2	0.96216977
18	0x3f81b12c	1.0132194
19	0x3f79d96c	0.97597384
20	0x3f752b44	0.95769143
21	0x3f80cccf	1.0062503
22	0x3f8463b4	1.0342927
23	0x3f806bf9	1.0032951
24	0x3f7f2633	0.9966766
25	0x3f7dfd2e	0.99214447
26	0x3f7ad2f3	0.9797813
27	0x3f84600d	1.0341812
28	0x3f800c1e	1.0003698
29	0x3f7a62b6	0.9780687
30	0x3f8074df	1.0035666
31	0x3f776ddf	0.96652025

blocks.1.norm2.bias f4 [32]
0	0x3c73ce9d	0.014880803
1	0x3ca437dd	0.020046169
2	0xbb65d87a	-0.0035071657
3	0xbd378dd4	-0.044812992
4	0x3d05d3c3	0.032672655
5	0xbd1a0d9e	-0.037610643
6	0x3cd4235a	0.025895763
7	0x3c69aa12	0.014261739
8	0xba9da98a	-0.0012028676
9	0xbd0b7f1a	-0.03405676
10	0x3da1640d	0.07880411
11	0xbc084a5f	-0.008318513
12	0xbb450b5b	-0.0030066583
13	0xbda96d51	-0.082728036
14	0xbca89a4b	-0.020581385
15	0xbc052352	-0.008126097
16	0x3c377604	0.011197571
17	0xbd68d32e	-0.05684202
18	0xb6a1feec	-4.8278507e-06
19	0xbd5a7866	-0.053337477
20	0x3d1f1ff3	0.03884883
21	0xbd3c5c3e	-0.045986407
22	0xbc49e4f5	-0.012322654
23	0xbcafd50f	-0.021463899
24	0x3d22fc98	0.039791673
25	0xbcdc6540	-0.026903749
26	0x3cdc070e	0.026858833
27	0xbd307af8	-0.043086022
28	0x3cd6a020	0.0261994
29	0xbd6f3d18	-0.058407873
30	0x3d537fce	0.051635556
31	0xbc15be6e	-0.00913964

norm.weight f4 [32]
0	0x3fb4a461	1.4112664
1	0x3faa6871	1.3313123
2	0x3fb1f5d0	1.3903141
3	0x3fa29a2f	1.2703303
4	0x3fca1779	1.5788413
5	0x3fa2ea7c	1.2727809
6	0x3fa76f0c	1.3080764
7	0x3fa533d6	1.2906444
8	0x3fac5203	1.3462528
9	0x3f9a1668	1.2038088
10	0x3fa556df	1.2917136
11	0x3fa7ca66	1.3108642
12	0x3faae5e4	1.3351407
13	0x3fa75b07	1.3074654
14	0x3fac1bd1	1.3445989
15	0x3fa7e174	1.3115678
16	0x3fa37aa1	1.2771798
17	0x3faa1c84	1.3289952
18	0x3fae04b6	1.3595188
19	0x3fa3d161	1.2798272
20	0x3fb6b4ed	1.4273964
21	0x3fba357c	1.4547572
22	0x3fbc8540	1.4728165
23	0x3fa68c83	1.3011631
24	0x3fa6e7c4	1.3039479
25	0x3fa768f7	1.3078908
26	0x3fa71ec5	1.3056265
27	0x3fc0de27	1.5067796
28	0x3fa83c7e	1.3143461
29	0x3f96fd94	1.1796136
30	0x3fab4793	1.3381218
31	0x3fa524e4	1.2901883

norm.bias f4 [32]
0	0xbe5dd9f7	-0.21665178
1	0xbe159078	-0.14605892
2	0xbd98692f	-0.07441937
3	0x3e7314b1	0.23738362
4	0xbe5479e1	-0.20749618
5	0x3e37e83d	0.17959686
6	0xbe57cc94	-0.21074134
7	0x3e47f8e0	0.19528532
8	0xbcd8ab3a	-0.026448835
9	0x3e60ecab	0.21965282
10	0xbe87ba2e	-0.2650923
11	0x3e47776f	0.19479154
12	0xbe65fb31	-0.22459103
13	0x3e85feb0	0.26170874
14	0xbe157949	-0.14597048
15	0x3e4501f9	0.19239034
16	0xbe5fc528	-0.21852553
17	0x3d411c87	0.047146346
18	0xbe776ef8	-0.24163425
19	0x3e9b13af	0.30288455
20	0xbdf53608	-0.11973196
21	0x3e688eae	0.22710678
22	0xbcf4b890	-0.029873163
23	0x3e464f48	0.19366181
24	0xbe87fa4c	-0.2655815
25	0x3e3d0d63	0.18462138
26	0xbe5ddc95	-0.21666177
27	0x3e0d8fd1	0.13824393
28	0xbea24bcc	-0.31698453
29	0x3e8a8206	0.27052325
30	0xbe4e33f0	-0.20137
31	0x3e815ead	0.25267544

output.bias f4 [11]
0	0xbe6ed96c	-0.23325127
1	0xbe6fff98	-0.23437345
2	0xbe729c6e	-0.23692486
3	0xbe74f474	-0.23921376
4	0xbe73593b	-0.23764507
5	0xbe702a8c	-0.2345373
6	0x3d641084	0.055679813
7	0x3d339a69	0.04384843
8	0x3b89b2bc	0.004202215
9	0x3d759c99	0.059963796
10	0xbc0f9d23	-0.008765492

onnx::Add_211 f4 [8, 32]
0	0x00000000	0.0
1	0x3f800000	1.0
2	0x00000000	0.0
3	0x3f800000	1.0
4	0x00000000	0.0
5	0x3f800000	1.0
6	0x00000000	0.0
7	0x3f800000	1.0
8	0x00000000	0.0
9	0x3f800000	1.0
10	0x00000000	0.0
11	0x3f800000	1.0
12	0x00000000	0.0
13	0x3f800000	1.0
14	0x00000000	0.0
15	0x3f800000	1.0
16	0x00000000	0.0
17	0x3f800000	1.0
18	0x00000000	0.0
19	0x3f800000	1.0
20	0x00000000	0.0
21	0x3f800000	1.0
22	0x00000000	0.0
23	0x3f800000	1.0
24	0x00000000	0.0
25	0x3f800000	1.0
26	0x00000000	0.0
27	0x3f800000	1.0
28	0x00000000	0.0
29	0x3f800000	1.0
30	0x00000000	0.0
31	0x3f800000	1.0
32	0x3f576aa4	0.84147096
33	0x3f0a5141	0.54030234
34	0x3f087dba	0.53316844
35	0x3f58940d	0.8460091
36	0x3e9f393e	0.3109836
37	0x3f734e6b	0.9504153
38	0x3e35233a	0.17689219
39	0x3f7bf683	0.9842302
40	0x3dcc7576	0.099833414
41	0x3f7eb898	0.9950042
42	0x3d6636ae	0.05620449
43	0x3f7f9868	0.9984193
44	0x3d01815b	0.031617504
45	0x3f7fdf3c	0.99950004
46	0x3c91ab42	0.017781857
47	0x3f7ff5a3	0.99984187
48	0x3c23d657	0.009999833
49	0x3f7ffcb9	0.99995
50	0x3bb8445a	0.0056233825
51	0x3f7ffef7	0.9999842
52	0x3b4f3e1c	0.0031622713
53	0x3f7fffac	0.999995
54	0x3ae91520	0.0017782785
55	0x3f7fffe6	0.99999845
56	0x3a83126d	0.0009999998
57	0x3f7ffff8	0.9999995
58	0x3a136a13	0.0005623411
59	0x3f7ffffd	0.9999998
60	0x39a5cb61	0.00031622782
61	0x3f7fffff	0.99999994
62	0x393a7753	0.00017782794
63	0x3f800000	1.0
64	0x3f68c7b7	0.9092974
65	0xbed51133	-0.41614684
66	0x3f66f20a	0.9021307
67	0x3edce8b2	0.43146282
68	0x3f17541b	0.5911271
69	0x3f4e7bec	0.8065784
70	0x3eb247f6	0.34820527
71	0x3f6ffaa6	0.93741834
72	0x3e4b6ff8	0.19866931
73	0x3f7ae5a5	0.9800666
74	0x3de5d986	0.1122313
75	0x3f7e61f3	0.9936821
76	0x3d8170c8	0.063203394
77	0x3f7f7cf9	0.9980007
78	0x3d11a55c	0.03555809
79	0x3f7fd68e	0.9993676
80	0x3ca3d43e	0.019998666
81	0x3f7ff2e5	0.9998
82	0x3c38439b	0.011246587
83	0x3f7ffbdb	0.99993676
84	0x3bcf3dd8	0.006324511
85	0x3f7ffeb1	0.99998003
86	0x3b691508	0.0035565514
87	0x3f7fff96	0.9999937
88	0x3b031268	0.0019999985
89	0x3f7fffdf	0.99999803
90	0x3a936a12	0.0011246821
91	0x3f7ffff5	0.99999934
92	0x3a25cb60	0.0006324556
93	0x3f7ffffd	0.9999998
94	0x39ba7753	0.00035565588
95	0x3f7fffff	0.99999994
96	0x3e1081c3	0.14112
97	0xbf7d7026	-0.9899925
98	0x3f7e45d7	0.9932532
99	0xbded7fab	-0.11596616
100	0x3f5009c2	0.8126489
101	0x3f152f58	0.58275366
102	0x3f022f6c	0.5085361
103	0x3f5c6d29	0.86104065
104	0x3e974e6c	0.2955202
105	0x3f7490ef	0.9553365
106	0x3e2beed7	0.16790329
107	0x3f7c5d9e	0.9858035
108	0x3dc1ffc0	0.094726086
109	0x3f7ed94f	0.99550337
110	0x3d5a694e	0.053323083
111	0x3f7fa2c3	0.9985773
112	0x3cf5b91f	0.0299955
113	0x3f7fe283	0.99955004
114	0x3c8a31c6	0.016869437
115	0x3f7ff6ad	0.9998577
116	0x3c1b6e0d	0.009486687
117	0x3f7ffd0d	0.999955
118	0x3baecfa8	0.005334813
119	0x3f7fff11	0.99998575
120	0x3b449b92	0.0029999954
121	0x3f7fffb5	0.9999955
122	0x3add1f17	0.0016870227
123	0x3f7fffe8	0.99999857
124	0x3a78b110	0.00094868336
125	0x3f7ffff9	0.9999996
126	0x3a0bd97e	0.0005334838
127	0x3f7ffffe	0.9999999
128	0xbf41bdcf	-0.7568025
129	0xbf275530	-0.6536436
130	0x3f4749ec	0.7784717
131	0xbf20af9e	-0.6276797
132	0x3f741dde	0.95358074
133	0x3e9a2eb1	0.30113748
134	0x3f271fbc	0.652828
135	0x3f41ebed	0.7575062
136	0x3ec761d7	0.38941833
137	0x3f6bcaa7	0.921061
138	0x3e6465c5	0.22304447
139	0x3f798d09	0.9748083
140	0x3e012e88	0.12615407
141	0x3f7df469	0.99201065
142	0x3d918dc8	0.07107121
143	0x3f7f5a46	0.9974712
144	0x3d23cbdb	0.039989334
145	0x3f7fcb94	0.9992001
146	0x3cb840a0	0.022491753
147	0x3f7fef6c	0.99974704
148	0x3c4f3cc9	0.01264877
149	0x3f7ffac2	0.99992
150	0x3be914a7	0.0071130577
151	0x3f7ffe58	0.9999747
152	0x3b831257	0.003999989
153	0x3f7fff7a	0.999992
154	0x3b136a0c	0.0022493629
155	0x3f7fffd6	0.9999975
156	0x3aa5cb5e	0.0012649109
157	0x3f7ffff3	0.9999992
158	0x3a3a7752	0.0007113117
159	0x3f7ffffc	0.99999976
160	0xbf757c10	-0.9589243
161	0x3e913c2c	0.2836622
162	0x3ea5dad8	0.32393527
163	0xbf723240	-0.94607925
164	0x3f7ffc7f	0.99994653
165	0xbc2972e9	-0.010342338
166	0x3f46caab	0.77652997
167	0x3f214cf1	0.6300803
168	0x3ef57743	0.47942552
169	0x3f60a940	0.87758255
170	0x3e8e11ed	0.2774805
171	0x3f75f27c	0.96073127
172	0x3e213c1d	0.15745588
173	0x3f7cce81	0.987526
174	0x3db5db21	0.08879686
175	0x3f7efd1e	0.99604976
176	0x3d4cb6f4	0.049979165
177	0x3f7fae19	0.99875027
178	0x3ce64dfb	0.028113356
179	0x3f7fe619	0.99960476
180	0x3c81857e	0.015810724
181	0x3f7ff7cf	0.999875
182	0x3c11acbb	0.00889128
183	0x3f7ffd69	0.9999605
184	0x3ba3d6dd	0.004999979
185	0x3f7fff2e	0.9999875
186	0x3b384489	0.0028117022
187	0x3f7fffbe	0.99999607
188	0x3acf3e33	0.0015811383
189	0x3f7fffeb	0.99999875
190	0x3a691526	0.0008891396
191	0x3f7ffff9	0.9999996
192	0xbe8f0f8c	-0.2794155
193	0x3f75cdb8	0.96017027
194	0xbe6be576	-0.23036751
195	0xbf791d53	-0.9731037
196	0x3f72784e	0.9471482
197	0xbea43f6d	-0.3207964
198	0x3f603088	0.8757405
199	0x3ef72f35	0.48278204
200	0x3f108c68	0.5646424
201	0x3f534932	0.8253356
202	0x3ea97dfc	0.3310393
203	0x3f7190e2	0.943617
204	0x3e41206e	0.18860027
205	0x3f7b67e3	0.98205394
206	0x3dda19c2	0.10649444
207	0x3f7e8b51	0.9943133
208	0x3d759cd1	0.059964005
209	0x3f7f8a12	0.99820054
210	0x3d0a2cbe	0.033734076
211	0x3f7fdab3	0.99943084
212	0x3c9b6c43	0.018972522
213	0x3f7ff434	0.99982
214	0x3c2ecf05	0.0106694745
215	0x3f7ffc45	0.9999431
216	0x3bc49b58	0.0059999637
217	0x3f7ffed2	0.999982
218	0x3b5d1f03	0.0033740408
219	0x3f7fffa1	0.99999434
220	0x3af8b108	0.0018973658
221	0x3f7fffe2	0.9999982
222	0x3a8bd97c	0.0010669674
223	0x3f7ffff7	0.99999946
224	0x3f283046	0.6569866
225	0x3f40ffbd	0.75390226
226	0xbf36b670	-0.7137213
227	0xbf334f5e	-0.7004298
228	0x3f4ce86e	0.8004216
229	0xbf1974bc	-0.5994375
230	0x3f728444	0.9473307
231	0x3ea3f8ba	0.320257
232	0x3f24eb72	0.6442176
233	0x3f43ccb3	0.7648422
234	0x3ec460de	0.38355154
235	0x3f6c6bc6	0.9235195
236	0x3e60d350	0.2195561
237	0x3f79c0ea	0.9755999
238	0x3dfe46ba	0.12415834
239	0x3f7e04e9	0.9922624
240	0x3d8f3e32	0.06994285
241	0x3f7f5f81	0.997551
242	0x3d21315e	0.03935372
243	0x3f7fcd3b	0.9992253
244	0x3cb552a2	0.022134129
245	0x3f7feff2	0.999755
246	0x3c4bf12a	0.012447635
247	0x3f7ffaec	0.9999225
248	0x3be55fc5	0.006999942
249	0x3f7ffe65	0.9999755
250	0x3b80fcbc	0.0039363783
251	0x3f7fff7e	0.99999225
252	0x3b1111ed	0.0022135929
253	0x3f7fffd7	0.99999756
254	0x3aa32866	0.0012447953
255	0x3f7ffff3	0.9999992

onnx::MatMul_218 f4 [32, 96]
0	0x3d7eb8a6	0.062187813
1	0x3db8b790	0.09019387
2	0x3b31ac44	0.0027110735
3	0x3c508c80	0.01272881
4	0x3de60cce	0.11232911
5	0xbd8172c5	-0.06320719
6	0x3dfca1d4	0.12335554
7	0xbdcf8e8f	-0.10134613
8	0xbde8b326	-0.11362295
9	0xbc00a082	-0.007850768
10	0xbbdbca1a	-0.006707442
11	0x3db04840	0.086075306
12	0x3d9cdf01	0.07659722
13	0x3e01dde0	0.12682295
14	0xbc2117c4	-0.009832326
15	0xbdc7f0df	-0.097627394
16	0xbd2c9cb7	-0.042141642
17	0xbdf3fce1	-0.11913467
18	0xbd99b409	-0.07505042
19	0x3deb5422	0.114906564
20	0x3dea8954	0.114519745
21	0xbdf239b3	-0.118274115
22	0x3dc5d1b4	0.09659138
23	0xbd8ea0a8	-0.069642365
24	0x3d9747b2	0.07386722
25	0xbdc3c706	-0.09559445
26	0xbdd95f52	-0.10613884
27	0xbdd002c4	-0.101567775
28	0x3de47c23	0.1115649
29	0xbdda3ab6	-0.106557295
30	0x3df9d9e6	0.12199764
31	0x3d98eb17	0.07466715
32	0x3d4530c4	0.04814221
33	0x3b9b4f5f	0.0047396864
34	0x3b2b6355	0.0026151736
35	0xbc8cfecd	-0.017211342
36	0x3cdd1bbc	0.026990764
37	0xbca25c74	-0.019819476
38	0x3d63a30f	0.055575427
39	0xbd1cb0b2	-0.038254447
40	0xbd18349b	-0.037159543
41	0xbccd9b79	-0.02509855
42	0x3bb8dfd5	0.005641917
43	0x3cde54eb	0.027140101
44	0x3ca52756	0.020160358
45	0x3c9cb8db	0.019131115
46	0xbc9d7771	-0.019221993
47	0xbcdc4d0d	-0.02689221
48	0xbd2fab8d	-0.042888213
49	0xbd508668	-0.05090943
50	0xbd7a5c3f	-0.06112313
51	0x3d282de2	0.041059382
52	0x3ced2772	0.028949473
53	0xbd0f4d4e	-0.034985833
54	0x3bf51d1f	0.007480278
55	0x3b8710c0	0.00412187
56	0x3d28419a	0.041078188
57	0xbd0d81f4	-0.03454776
58	0xbd141dce	-0.036161236
59	0xbd1e67d8	-0.038673252
60	0x3cedb9e7	0.02901931
61	0xbc93cd2a	-0.018042166
62	0x3d940052	0.072266236
63	0x3d55e07e	0.052216046
64	0xbccfa2a8	-0.025346115
65	0xbd214d2c	-0.039380237
66	0xbc859d2c	-0.016310297
67	0xbc5bd8ad	-0.013418359
68	0xbc286833	-0.010278749
69	0x3d0d1398	0.034442514
70	0xbc30c662	-0.010789486
71	0x3c93ceb8	0.018042907
72	0x3d76c577	0.06024691
73	0xbc87fc4b	-0.016599795
74	0x3c9f1cd0	0.019422919
75	0x3ce08928	0.027409151
76	0xbcf0176b	-0.029308042
77	0xbc6c1c48	-0.01441104
78	0x3c5da60c	0.013528358
79	0xbcf643ee	-0.030061688
80	0xbb7119fe	-0.0036789174
81	0x3ab93ac0	0.0014131889
82	0x3daf549a	0.08561058
83	0x3b18181d	0.0023207732
84	0x3c2f1e93	0.010688442
85	0xbd2f99e1	-0.04287136
86	0x3c6604bb	0.014039214
87	0xbce608cc	-0.028080367
88	0x3c5640c4	0.013076965
89	0xbc310de1	-0.010806532
90	0xbd17610e	-0.036957793
91	0xbbfb1489	-0.00766236
92	0xbd219ebf	-0.039458033
93	0x3c328d14	0.010897893
94	0x3d5ec2c5	0.054384965
95	0xbd2aa7a6	-0.04166379
96	0xbcccaad9	-0.02498381
97	0xbd8cdced	-0.06878076
98	0xbd350cef	-0.044201788
99	0x3c28e401	0.010308267
100	0xbd8747d0	-0.06605494
101	0x3d82f22a	0.063938454
102	0xbd81a0e3	-0.06329515
103	0x3d01075c	0.03150116
104	0x3db56f6e	0.08859144
105	0x3c8cc3f5	0.017183283
106	0x3da79c51	0.08184112
107	0xbc35039f	-0.011048227
108	0xbd988310	-0.07446873
109	0xbd97efeb	-0.074188076
110	0x3c452da8	0.012034811
111	0x3d8ffc80	0.070305824
112	0xbc0217a2	-0.007940205
113	0x3d35eef5	0.04441734
114	0x3dc55671	0.09635628
115	0xbd194152	-0.03741581
116	0xbda558b8	-0.080735624
117	0x3d0b9e13	0.0340863
118	0xbd9cf188	-0.07663256
119	0x3d0c52d6	0.034258686
120	0xbcda429c	-0.02664309
121	0x3d6b3831	0.057426635
122	0x3ce65798	0.02811794
123	0x3d5ca254	0.053865746
124	0xbd209cc4	-0.039212003
125	0x3df21315	0.11820046
126	0xbca74880	-0.020420313
127	0xbd3b9fa8	-0.045806557
128	0xbd5054c8	-0.050862104
129	0xbc682416	-0.01416876
130	0xbcdff9e4	-0.027340837
131	0xbbd559b0	-0.0065109357
132	0xbd0d8915	-0.03455456
133	0x3d9b84bc	0.075936764
134	0xbd649af8	-0.055811852
135	0x3d2e3870	0.04253429
136	0x3d31cdc4	0.043409124
137	0xbb966175	-0.0045892545
138	0x3ce94965	0.02847738
139	0xbd8e053e	-0.069345936
140	0xbd545718	-0.05184087
141	0xbd85fddc	-0.065425605
142	0x3d132caf	0.035931285
143	0x3d2efce3	0.04272164
144	0x3c90210f	0.017593889
145	0x3cad89f4	0.021183945
146	0x3d6cd7a0	0.057822824
147	0xbd45d2cb	-0.04829673
148	0xbcfb74a4	-0.030695267
149	0x3d65587c	0.05599259
150	0xbd8f9438	-0.07010692
151	0x3d6f2cad	0.058392216
152	0xbc72dac7	-0.014822668
153	0x3c43a025	0.011940037
154	0x3d41c420	0.04730618
155	0x3d6d93bc	0.05800222
156	0xbce79641	-0.028269889
157	0x3cbe5c40	0.023237348
158	0xbd4c7495	-0.04991587
159	0xbc83f5f6	-0.016108494
160	0xbc8a46ad	-0.016879404
161	0x3c4c915b	0.012485827
162	0xbca0f8ca	-0.019649882
163	0xbd43cba9	-0.047801647
164	0xbbcd72b1	-0.006269776
165	0x3c5851e9	0.013203123
166	0x3cf414c8	0.029795066
167	0xbd1236ad	-0.035696674
168	0xbd45a3ab	-0.04825179
169	0xbce34e1a	-0.027747203
170	0xbccc11d0	-0.024910837
171	0xbc3b231e	-0.011421947
172	0x3c3ad936	0.011404326
173	0xbcac2a95	-0.021016398
174	0xbd7ed4e5	-0.06221475
175	0xbcee4058	-0.029083416
176	0x3d3d20b1	0.046173755
177	0xbd028207	-0.031862285
178	0xbd8f9c92	-0.07012285
179	0x3d208636	0.039190494
180	0xbc262f29	-0.01014308
181	0xbcc55969	-0.024090486
182	0xbc93bb0b	-0.018033525
183	0x3bfebf96	0.0077743037
184	0x3bd73586	0.00656766
185	0xbbceaa90	-0.0063069537
186	0xbca285c0	-0.019839168
187	0x3c2ae903	0.010431531
188	0x3d5a7111	0.053330485
189	0xbca8eb94	-0.020620145
190	0x3b42637c	0.0029661348
191	0x3bddf56e	0.0067736423
192	0x3d6d9969	0.05800763
193	0x3d05b830	0.032646358
194	0xbd0b580c	-0.034019515
195	0xbac16c35	-0.001475698
196	0x3d1a83eb	0.037723463
197	0xbd2595a8	-0.040425926
198	0x3d14558c	0.036214396
199	0xbd90695d	-0.070513465
200	0xbd957c29	-0.07299072
201	0x3ce727e7	0.02821727
202	0xbc89abb6	-0.016805511
203	0x3d85c6a9	0.06532032
204	0x3da48909	0.0803395
205	0x3d15cfb1	0.036575023
206	0x3c6dcacc	0.014513683
207	0xbd719479	-0.058979485
208	0xba86d728	-0.001028751
209	0xbc8fb982	-0.017544512
210	0xbc1a358e	-0.0094121825
211	0x3ce17457	0.027521295
212	0x3d45e088	0.048309833
213	0xbd9884a9	-0.07447178
214	0x3d47ec43	0.0488093
215	0xbd802648	-0.062573016
216	0x3cb911f3	0.022591567
217	0x3cc091f4	0.023507096
218	0xbd749e13	-0.059721064
219	0xbc8bcffc	-0.017066948
220	0x3d0befd1	0.034164254
221	0xbbddeed3	-0.006772855
222	0x3cdb292f	0.026753036
223	0x3ce32990	0.02772978
224	0x3b028360	0.0019914731
225	0x3d11dbb0	0.0356099
226	0xbc8201eb	-0.015870055
227	0x3d010202	0.031496055
228	0x3c872758	0.016498253
229	0xbd98660e	-0.074413404
230	0x3d5f07b9	0.054450724
231	0xbd14101c	-0.036148176
232	0xbd8ebec3	-0.06969979
233	0x3cc5c728	0.024142817
234	0x3af98c6e	0.0019039044
235	0x3d32ed31	0.043683235
236	0x3d4137fe	0.04717254
237	0x3d1ce372	0.038302846
238	0xbc991048	-0.018684521
239	0xbd838ae1	-0.064229734
240	0xbd2609e4	-0.040536776
241	0xbd8ae710	-0.06782353
242	0xbd60f838	-0.05492422
243	0x3cdd1aaa	0.026990253
244	0x3d2822a6	0.04104867
245	0xbd241bad	-0.040065456
246	0x3cff6cbd	0.03117978
247	0xbcb99e23	-0.022658413
248	0x3d148648	0.036260873
249	0x3c2e11aa	0.010624329
250	0xbcb45b83	-0.022016292
251	0xbd19b106	-0.03752234
252	0x3cef1bed	0.02918812
253	0xbd726fdb	-0.059188705
254	0x3cfdaaa3	0.030965155
255	0x3d4fafe7	0.050704863

onnx::MatMul_219 f4 [32, 32]
0	0x3c16a5e9	0.0091948295
1	0xbd895347	-0.06705337
2	0x3d9742bd	0.07385776
3	0xbb0eac52	-0.0021770191
4	0xbd685d46	-0.056729577
5	0x3d4619a1	0.048364285
6	0xbdacd974	-0.084399134
7	0x3c4c8185	0.012482052
8	0x3dac7559	0.0842082
9	0x3bd9bfa8	0.0066451617
10	0x3cc8c582	0.024508242
11	0x3b86ce2a	0.004113932
12	0xbb01de8d	-0.0019816488
13	0xbd137a72	-0.036005445
14	0x3d1fdec3	0.0390308
15	0x3d04afd3	0.03239424
16	0xbd8ac79f	-0.06776356
17	0xbba34a54	-0.004983226
18	0x3c95384d	0.018215323
19	0x3b141d71	0.0022600556
20	0x3cca527d	0.024697537
21	0x3ca4ff98	0.020141408
22	0x3dafb8c8	0.08580166
23	0xbcbd3161	-0.023094835
24	0xba2bf6bb	-0.0006559898
25	0xbd52476e	-0.051337652
26	0xbd1e94fd	-0.038716305
27	0xbc8d7ed9	-0.0172724
28	0xbd880c67	-0.066429906
29	0xbcd172b5	-0.025567392
30	0xbc81046f	-0.015749184
31	0x3d48e7a2	0.049049027
32	0xbbf3f063	-0.007444428
33	0xbcc15278	-0.023598894
34	0x3d2afecf	0.04174691
35	0x3d1c77e9	0.038200293
36	0xbc9f4205	-0.01944066
37	0x3d0240e9	0.031800184
38	0xbdbd1913	-0.09233298
39	0xbad241b1	-0.0016041306
40	0x3d9ec367	0.07752114
41	0x3d41a874	0.04727979
42	0x3c0e74a7	0.008694804
43	0xbc0b5426	-0.008503949
44	0x3c6ad61b	0.014333273
45	0xbcd76b01	-0.02629614
46	0x3c979ddf	0.018507896
47	0xbc925116	-0.01786093
48	0xbd80a771	-0.06281937
49	0xbd205043	-0.039139044
50	0x3ce29723	0.027659958
51	0x3c74c036	0.014938405
52	0xb9e6424c	-0.00043918414
53	0x3d9c46c6	0.076306865
54	0x3da47ac3	0.080312274
55	0xbbcc38be	-0.00623235
56	0x3c808978	0.01569055
57	0xbcdd005b	-0.026977709
58	0xbc7e10cf	-0.015506937
59	0xbc8c2df6	-0.01711176
60	0xbc23412f	-0.009964271
61	0x3d13341f	0.03593838
62	0x3d324982	0.043527134
63	0x3d90e024	0.070740014
64	0xbc9089c3	-0.017643815
65	0x3d1ec3ad	0.03876083
66	0x3cb79977	0.022412045
67	0x3d3447aa	0.044013657
68	0xbc65cdee	-0.014026148
69	0x3d4596a0	0.04823935
70	0xbca4c25f	-0.020112215
71	0x3c1aa3a7	0.009438432
72	0x3d1d12af	0.038347896
73	0x3ce77728	0.02825506
74	0xbb965819	-0.004588139
75	0xbd7a09d3	-0.061044525
76	0xbc6aa1e1	-0.0143208215
77	0xbd3f508e	-0.046707682
78	0x3d4fb410	0.05070883
79	0x3be9991e	0.0071288487
80	0x3aacf03f	0.0013194158
81	0x3c054f7f	0.008136629
82	0x3cbc335c	0.022973709
83	0xbc746962	-0.014917703
84	0xbd176326	-0.03695979
85	0x3bd347c9	0.0064477664
86	0x3d561b8b	0.05227236
87	0xbd41665e	-0.047216766
88	0x3b9a0f95	0.0047015646
89	0x3bcc5d73	0.006236726
90	0x3b01ce56	0.0019806824
91	0xbc09d728	-0.008413114
92	0xbd996bef	-0.0749129
93	0xbc7076f9	-0.014676803
94	0x3c9dd67f	0.019267319
95	0x3d23aa65	0.039957423
96	0xbcc05df2	-0.023482297
97	0x3d3e2231	0.046419326
98	0xbc105610	-0.008809581
99	0x3bc8da9c	0.006129576
100	0x3c916a57	0.017750902
101	0xbc51a2e9	-0.012795188
102	0xbc2881db	-0.010284866
103	0x3c99efb2	0.018791053
104	0xb9ec6894	-0.00045091345
105	0x3d13dcff	0.03609943
106	0xbd54a8e0	-0.051918864
107	0xbc93d9a9	-0.018048124
108	0x3cd30c0f	0.025762586
109	0xbd374f2e	-0.044753246
110	0xbbfbaaee	-0.0076802885
111	0xbd3239d1	-0.04351217
112	0x3d2ce6a4	0.042212144
113	0x3b623fbc	0.0034522852
114	0xbba404d5	-0.005005459
115	0xbc1a2afb	-0.009409661
116	0x3c9f80b0	0.019470543
117	0xbd0724aa	-0.03299395
118	0x3d014666	0.031561278
119	0x3d695bfa	0.05697248
120	0xbd45ac42	-0.04825998
121	0xbccea7b5	-0.025226453
122	0x3d135f76	0.03597971
123	0xbc212045	-0.009834354
124	0x3d25bea6	0.04046502
125	0x3cd3ce43	0.02585519
126	0xbb9a5a0a	-0.0047104405
127	0x3c6e7efb	0.014556642
128	0x3cc6a478	0.024248347
129	0x3d261ed6	0.04055675
130	0x3c5ea2a1	0.013588578
131	0xbcf1b931	-0.029507251
132	0xbcb0fb56	-0.021604221
133	0x3cf58efe	0.02997541
134	0x3d12c270	0.03582996
135	0x3d2ef9d8	0.04271874
136	0x3ba53470	0.0050416514
137	0x3c8bc703	0.01706267
138	0xbd1cf812	-0.038322516
139	0x3c3979ed	0.011320573
140	0x3cbaeeec	0.022819005
141	0xbcecf621	-0.028925957
142	0x3bc10a93	0.005891153
143	0xbd8f5ac4	-0.06999734
144	0x3c1af68b	0.0094581945
145	0x3d1dd5b3	0.038533878
146	0x3cbca7dc	0.02302926
147	0xbd1a5a3f	-0.03768372
148	0xbd42844d	-0.047489453
149	0x3cf0469a	0.02933054
150	0xbc21dea7	-0.009879745
151	0xbce36e65	-0.027762601
152	0x3c8fb859	0.017543959
153	0x3c5c8a12	0.013460653
154	0xbc1cb8a6	-0.009565508
155	0x3cb143fe	0.021638867
156	0xbcd67ba8	-0.02618201
157	0xbd40f10c	-0.04710488
158	0xbca89cee	-0.020582642
159	0xbcbeb7cf	-0.023281006
160	0xbcdbefd7	-0.026847763
161	0xbd189699	-0.037252996
162	0xbcd7af91	-0.026328834
163	0x3cebabd2	0.028768454
164	0x3d3fd8f0	0.046837747
165	0xbc17a04c	-0.009254526
166	0x38f45621	0.000116508694
167	0x3c65cca2	0.014025839
168	0x3b7f0078	0.0038910192
169	0x3c6bc180	0.014389396
170	0x3c2ce37b	0.010552282
171	0x3c9b7af8	0.018979535
172	0xbca3f7b1	-0.02001557
173	0xbc99a263	-0.01875419
174	0x3cae44da	0.021273065
175	0x3caee38b	0.021348735
176	0x3c2c80cd	0.010528755
177	0xbca4bdf5	-0.02011011
178	0x3891a399	6.944611e-05
179	0x3c12fcd9	0.008971416
180	0x3c01109b	0.007877494
181	0xbd50793a	-0.05089686
182	0x3be7323e	0.00705555
183	0xba8e3964	-0.0010850844
184	0xbc016ec6	-0.007899946
185	0xbb97c080	-0.004631102
186	0xbc74183f	-0.014898359
187	0xbccbb79b	-0.024867823
188	0xbce3286d	-0.027729237
189	0xbd5e2fb4	-0.054244712
190	0xbd064fbd	-0.032790888
191	0x3cc70423	0.024293965
192	0xbcf77cda	-0.030210901
193	0x3bd005d7	0.0063483524
194	0x3c4a7a6b	0.012358288
195	0x3cf937c2	0.030422095
196	0xbca98eb1	-0.020697923
197	0xbd2774a1	-0.04088271
198	0xbbd8fc59	-0.006621879
199	0xbd5263ac	-0.051364586
200	0x3caaa526	0.020830702
201	0xbcbab006	-0.022789013
202	0xbcc3c255	-0.023896376
203	0x3d86cafe	0.065816864
204	0xb9e2793b	-0.00043196403
205	0xbd4feec7	-0.050764825
206	0x3bf38a82	0.007432283
207	0xbc64129d	-0.013920453
208	0xbbd867c3	-0.0066041662
209	0x3c5ca534	0.013467122
210	0x3a6a9f6c	0.00089501473
211	0xbc1e1222	-0.009647878
212	0xbd1d5df3	-0.038419675
213	0xbbe138a0	-0.0068732053
214	0x3b039529	0.002007792
215	0x3cda982c	0.02668389
216	0x3d48796c	0.048943922
217	0xbcde4a45	-0.027135024
218	0x3c4f9604	0.012670044
219	0x3d1dee48	0.03855732
220	0x3ba49b14	0.0050233696
221	0xbc2641ac	-0.010147493
222	0x3c4978e3	0.012296888
223	0x3d0e09b1	0.03467721
224	0x3d39535f	0.045245524
225	0xbcddca32	-0.027073953
226	0xbd32cd77	-0.043652978
227	0x3c50ca4c	0.012743544
228	0x3da74100	0.08166695
229	0x3c6f9d89	0.014624962
230	0x3b06ceda	0.002057007
231	0x3caa728f	0.020806579
232	0x3ca0628f	0.019578246
233	0x3d08046b	0.03320734
234	0x3d5e3ca5	0.054257054
235	0x3c49efbe	0.012325225
236	0xbd83b3c4	-0.06430772
237	0x3cc6d534	0.024271585
238	0xbd053758	-0.032523483
239	0x3d3706d2	0.04468424
240	0xbcb19572	-0.021677706
241	0xbd776ee2	-0.06040848
242	0xbc1ac7d5	-0.009447058
243	0x3cbb4445	0.022859702
244	0x3ce818bc	0.028332107
245	0xbce94166	-0.028473567
246	0xbce36ef2	-0.027762864
247	0x3d07edb7	0.033185687
248	0xbd3ec846	-0.046577714
249	0x3cd8ba61	0.02645606
250	0xbda65a00	-0.08122635
251	0xbd74a657	-0.059728947
252	0x3af00076	0.0018310684
253	0xbccffd71	-0.025389405
254	0x3d563a76	0.052301846
255	0x3cb86766	0.022510242

onnx::MatMul_220 f4 [32, 64]
0	0x3d4c807e	0.049927227
1	0x3d6860de	0.056733005
2	0x3e428a36	0.18998036
3	0xbd9c319d	-0.076266505
4	0xbb865215	-0.0040991404
5	0xbd44a692	-0.048010416
6	0x3d868b0f	0.06569492
7	0xbbd6a2af	-0.006550155
8	0x3e162387	0.1466199
9	0x3de76a60	0.11299586
10	0xbc991f93	-0.018691814
11	0x3c50ea7a	0.012751216
12	0x3e01b93e	0.1266832
13	0x3d0e76b1	0.03478116
14	0x3c8aa2ee	0.016923394
15	0x3d0cf76b	0.034415644
16	0x3d430e04	0.04762079
17	0xbdbe4998	-0.09291381
18	0x3bf43594	0.007452676
19	0x3c994437	0.018709285
20	0x3cae2ffe	0.021263119
21	0xbcac9605	-0.021067629
22	0x3d3fc2db	0.046816688
23	0x3c9cfc1d	0.019163186
24	0x3c05bb3e	0.008162318
25	0x3dd0f8ef	0.1020373
26	0x3d478f8b	0.048720878
27	0x3d1b3292	0.037890024
28	0x3d9ab74a	0.07554491
29	0x3a355344	0.00069170096
30	0xbe0d34e7	-0.13789712
31	0x3cb01ae2	0.021497194
32	0xbda1b2ea	-0.07895453
33	0xbca6bd8f	-0.02035406
34	0x3d53c821	0.05170453
35	0xbd0bbd34	-0.034115985
36	0x3d9633c7	0.073340945
37	0x3d9c523a	0.07632871
38	0x3d29b6f3	0.04143424
39	0xbe0338f8	-0.128147
40	0x3d8b2ae6	0.067952916
41	0x3b226ff2	0.0024785963
42	0x3cca4d35	0.024695018
43	0xbe0739da	-0.13205662
44	0xbd8ef595	-0.06980435
45	0x3da4437a	0.08020683
46	0x3e09248f	0.13392852
47	0x3b61673e	0.0034393813
48	0x3cb43682	0.021998648
49	0xbdc2ca13	-0.09511199
50	0xbd7da412	-0.061924048
51	0xbcfb25ac	-0.030657612
52	0x3d9c1675	0.07621471
53	0x3e060f15	0.13091691
54	0x3d5ed3f2	0.054401346
55	0x3d7fbac3	0.06243397
56	0x3db13c69	0.086541004
57	0xbce32d52	-0.027731571
58	0xbdec3cc6	-0.11535029
59	0x3e143df8	0.14476764
60	0xbd976780	-0.07392788
61	0xbb8ffe00	-0.004394293
62	0x3d051f69	0.03250066
63	0x3c268bd9	0.010165178
64	0xbdbe860d	-0.09302912
65	0xbc946826	-0.018116068
66	0xbd3b0a97	-0.045664396
67	0x3cd8e6b3	0.026477193
68	0x3c1f7abd	0.009733853
69	0x3cb407a0	0.021976292
70	0xbd459990	-0.04824215
71	0xbcf161a5	-0.029465506
72	0xbda1e65a	-0.07905264
73	0xbdb1176c	-0.086470455
74	0x3c02f03e	0.0079918485
75	0x3b817ed4	0.0039518867
76	0xbd54408c	-0.05181937
77	0x3c5e8488	0.013581403
78	0x3ca4ad30	0.020102113
79	0xbc26bb25	-0.010176455
80	0xbcf3e7f7	-0.029773695
81	0x3d7f78c8	0.062371045
82	0x3d343f17	0.04400548
83	0x3c8d3750	0.01723829
84	0xbc81e68c	-0.015857004
85	0x3cfec570	0.031100005
86	0xbd8df434	-0.06931344
87	0xb9b182ee	-0.0003385762
88	0xbcfec6ee	-0.031100716
89	0xbdacb5a7	-0.08433085
90	0xbd90cb98	-0.070700824
91	0xbc13f524	-0.009030614
92	0xbd078087	-0.033081558
93	0xbbf78540	-0.0075537264
94	0x3e13eb68	0.14445269
95	0x3da8bbaf	0.08238923
96	0x3d011021	0.031509522
97	0x3c0bdd7a	0.008536691
98	0xbd47972e	-0.04872816
99	0x3cbcd35e	0.023050006
100	0xbd8f3601	-0.06992722
101	0xbd3aa517	-0.0455676
102	0xbd691c59	-0.0569118
103	0x3d689590	0.05678326
104	0xbd9ba439	-0.07599682
105	0x3bfeb3f5	0.0077729174
106	0x3c406c57	0.01174458
107	0x3c5decc6	0.013545221
108	0x3d55016e	0.052003317
109	0xbd9704e9	-0.073739834
110	0xbd7834ec	-0.060597345
111	0xbcab9d91	-0.020949157
112	0xbc7982de	-0.015228955
113	0x3d5c048b	0.05371527
114	0xbc85edac	-0.016348682
115	0x3c6f4727	0.014604366
116	0x3c8ae195	0.016953269
117	0xbd9bccb3	-0.07607403
118	0xbd82d5b3	-0.06388416
119	0xbdabbf3e	-0.08386086
120	0x3c89a672	0.016803
121	0xbbc55760	-0.006022379
122	0x3db8a668	0.090161145
123	0xbd780060	-0.060547233
124	0x3bc9136f	0.00613635
125	0x3d0c7f19	0.034300897
126	0xbc6f98d3	-0.0146238385
127	0x3d28bc25	0.041195054
128	0x3d18ebb3	0.037334155
129	0x3cf30afe	0.029668327
130	0x3db39a1c	0.087696284
131	0xbdaf2a34	-0.085529715
132	0x3d06380e	0.0327683
133	0x3d21d059	0.039505336
134	0x3c82e1ee	0.015976872
135	0xbaa3d3cb	-0.0012499032
136	0x3dc77584	0.09739211
137	0x3d6cd875	0.057823617
138	0x3c529a11	0.012854115
139	0x3d25e428	0.04050079
140	0x3d9a6ad4	0.07539907
141	0xbc9f7645	-0.019465575
142	0x3d196c90	0.03745705
143	0x3caf70b3	0.021416044
144	0xbc02f5ae	-0.007993145
145	0xbdf3ffdd	-0.119140364
146	0xbb76c5c7	-0.0037654506
147	0x3d0f2aef	0.034953054
148	0x3b2978f1	0.002585944
149	0xbbe0f3e6	-0.0068650125
150	0x3c7205ed	0.014771921
151	0xb99dc9c0	-0.0003009569
152	0xbd2a129c	-0.041521654
153	0x3d9fd091	0.07803453
154	0x3d88bccf	0.066766374
155	0x3c70a207	0.014687068
156	0x3d05103c	0.032486185
157	0x3d3ce39a	0.046115495
158	0xbe0a5dbe	-0.13512322
159	0xbd4c52b7	-0.04988357
160	0x3c9a554f	0.018839506
161	0xbc8e391b	-0.017361214
162	0x3d2824e5	0.04105081
163	0x3bf30ee4	0.0074175466
164	0x3c3925dd	0.011300531
165	0x3d39e192	0.045381136
166	0x3d0cf4fa	0.034413315
167	0xbd461604	-0.04836084
168	0x3d0756be	0.03304171
169	0xba90b8b5	-0.0011041375
170	0xbbf91c40	-0.0076022446
171	0x3c45f4c0	0.012082279
172	0xbd8ba389	-0.06818301
173	0x3d71cd1b	0.059033494
174	0x3d1e9db5	0.03872462
175	0x3c5ac2e8	0.013352133
176	0x3cea7a45	0.028622756
177	0xbdb53a12	-0.08848967
178	0xbbe97af0	-0.007125251
179	0xbb943fa8	-0.00452419
180	0xbc2b7df9	-0.010467046
181	0x3d64ae1e	0.055830114
182	0x3c6fcf61	0.014636845
183	0x3cfbc668	0.030734256
184	0xbc5df74a	-0.013547728
185	0x3cdcbc38	0.026945218
186	0xbe0828bf	-0.13296793
187	0x3d8cdb8f	0.06877815
188	0x3d468944	0.04847075
189	0x3ca34765	0.019931505
190	0x3b4eacbd	0.0031536066
191	0xbc8d3ac6	-0.01723994
192	0xbd0650bc	-0.032791838
193	0xbb26fcc5	-0.0025480252
194	0x3d95350c	0.072855085
195	0x3bce5730	0.0062970147
196	0xbd7141bf	-0.05890059
197	0xbcec3008	-0.028831497
198	0xbdf64b26	-0.12026052
199	0x3cfb2287	0.030656112
200	0x3d0a9751	0.033835713
201	0x3ba3d77b	0.0050000525
202	0xbc878f85	-0.016547928
203	0xbcb1c60e	-0.021700885
204	0x3c3a8725	0.01138476
205	0xbc8f4410	-0.01748851
206	0xbcb18d5d	-0.021673853
207	0xbcf14a0a	-0.02945425
208	0xb98b5f0d	-0.00026582964
209	0x3d58908e	0.052872233
210	0x3c51296e	0.012766225
211	0xbcdec5eb	-0.027193984
212	0x3cb5bf9c	0.022186093
213	0x3d3b61a8	0.04574743
214	0xbd64c3b2	-0.055850692
215	0x3c381d72	0.011237489
216	0xbd176bf2	-0.03696818
217	0xbd5179a5	-0.0511414
218	0xbc449376	-0.011998048
219	0xbd00e54b	-0.03146867
220	0xbd00c7be	-0.03144049
221	0x3baba830	0.0052385554
222	0x3d87d8b9	0.066331334
223	0xbca6c03a	-0.020355333
224	0xbd1868e6	-0.037209414
225	0xbd2892c4	-0.04115559
226	0xbcee1102	-0.029060844
227	0x3bc46fa0	0.005994752
228	0xbd207f17	-0.039183702
229	0xbc857edc	-0.016295843
230	0xbcd1127f	-0.025521515
231	0xbd1f25b3	-0.038854312
232	0xbc30d6f1	-0.0107934335
233	0xbceef430	-0.029169172
234	0x3cf1bd3f	0.029509185
235	0xbd478385	-0.04870941
236	0xbd2d4d55	-0.042310078
237	0xbd96d98d	-0.07365713
238	0xbd45eda3	-0.04832233
239	0xbd421de5	-0.04739179
240	0xba89b208	-0.0010505328
241	0x3cc5dc03	0.024152761
242	0x3cf3e534	0.029772379
243	0x3c7a62c9	0.015282341
244	0x3c8cd0e8	0.017189458
245	0xbbebab05	-0.007192018
246	0xbcceea1d	-0.025258118
247	0xbd8c9450	-0.06864226
248	0xbde1d622	-0.11027171
249	0xbde0e4bf	-0.1098113
250	0x3d8de22a	0.06927903
251	0x3cf9a7b6	0.030475479
252	0x3cd12c6d	0.02553388
253	0xbcc1a2a1	-0.023637118
254	0xbbe229c2	-0.0069019506
255	0x3d188a37	0.037241187
